Model: "model"
_________________________________________________________________
Layer (type)                 Output Shape              Param #   
=================================================================
input_1 (InputLayer)         [(None, 1)]               0         
_________________________________________________________________
dense (Dense)                (None, 16)                32        
_________________________________________________________________
dense_1 (Dense)              (None, 16)                272       
_________________________________________________________________
dense_2 (Dense)              (None, 16)                272       
_________________________________________________________________
dense_3 (Dense)              (None, 16)                272       
_________________________________________________________________
dense_4 (Dense)              (None, 1)                 17        
=================================================================
Total params: 865
Trainable params: 865
Non-trainable params: 0
_________________________________________________________________
------- Model compiled -------
Epoch 1/50000
1/1 [==============================] - ETA: 0s - loss: 3.67141/1 [==============================] - 3s 3s/step - loss: 3.6714
…
